saved_model_weights/mlp.ckpt (torch, 146455 bytes, 5 tensors)

layers.0.weight f4 [16, 2246]
0.00030428465 0.01995401 0.012935068 -0.0010038337 0.0011355295 -0.0041769096 -0.004998139 0.007770893
0.01055306 0.0029956906 -0.0039368216 -0.004056715 0.005612025 0.0014252529 0.004719132 0.0030411913
0.011010886 0.0048019136 0.020197704 0.014956068 0.015381785 -0.01320423 0.014901569 0.016790017
0.013821884 -0.009642321 0.011412988 0.015868424 -0.020375988 0.014723659 0.01266402 -0.018646484
-0.002763754 -0.006602515 -0.0036212278 0.008626098 -0.005324828 -0.016322805 0.0086634215 0.011563393
-0.004788718 0.020552948 -0.004937982 -0.015577528 -0.005661378 -0.013949702 0.014315984 -0.00609173
0.008443757 -0.014748978 -0.014833891 0.015400489 0.00879393 -0.008737157 0.010970288 -0.012126798
-0.0015075961 -0.014802187 0.0051841554 -0.0031583584 -0.015238018 -0.015864685 -0.0058410536 0.0043034665
-0.009676295 -0.015337411 0.010946008 0.004524575 0.020889737 0.016860968 0.009435709 0.013057148
-0.016602634 -0.012220474 0.014119162 0.020208443 0.014689193 -0.0070528425 0.0155800795 -0.020702995
0.007814634 -0.004826003 0.013261925 0.018688379 0.020542102 0.019952178 0.01797531 -0.0014397244
-0.00065656693 -0.004456817 0.014200688 0.0005975384 -0.010264261 -0.008427566 -0.0027230198 0.008546762
0.016951466 0.0027919968 -0.015099649 0.011116776 -0.009862027 0.012016634 0.011318901 0.001408203
-0.0012265994 0.005240731 0.010265375 0.016920347 -0.008329948 0.016752273 0.0016067855 0.005831699
-0.015076701 0.0022723451 0.019087432 0.00972006 0.0009217368 -0.0041972543 0.010634855 0.018013656
0.020208789 -0.0013651019 0.003891639 -0.0025400298 0.011418995 -0.009906114 0.013113958 0.0037139247
-0.00093682663 0.0047385436 0.014540722 -0.0071377032 -0.020884268 -0.0006772309 -0.016249944 0.013851395
0.020989224 0.005779487 0.020576555 0.013493238 -0.008448808 0.017095905 -0.018820215 -0.016960759
-0.011290512 -0.008387845 0.0025085045 0.007750632 0.020945301 -0.0013757722 -0.011728122 0.006492542
0.001918407 -0.013320526 -0.0024750219 -0.008607977 0.011007138 0.011242053 0.010699536 0.009463821
-0.005087685 0.017534472 0.007277829 0.0067305225 -0.017349353 -0.0066909385 0.0062506744 0.016840653
-0.020792678 -0.005960077 -0.004516399 -0.007852217 -0.008080679 -0.00838328 0.0027630446 0.012842273
0.016646896 0.00998642 0.0019276941 -0.0005230332 0.011624605 0.0015781 0.0065165116 -0.007173252
-0.012637158 0.0035677983 0.013287776 -0.013826726 -0.006130794 -0.0048628314 -0.0121031 0.015628416
-0.006538657 -0.007145185 0.010783653 0.008225062 -0.004623329 -0.008388142 0.015938547 0.013428653
0.015163512 0.016658274 0.018675936 -0.0005191607 -0.0013838138 -0.013244272 0.017540088 0.010811074
0.0035733264 0.017404681 -0.017364785 0.019828798 0.0030955195 -0.011095567 -0.008872656 0.02046538
0.00056336925 -0.018792344 -0.005028026 0.0044217133 0.014938777 0.011510634 -0.00062302925 0.005487282
-0.005537811 0.013594279 0.01104387 -0.011739114 0.019316275 0.0140067525 0.009173069 0.013572865
-0.018707467 0.003966296 -0.005936145 -0.01889672 -0.003641172 -0.0067895893 0.010534818 0.016690623
0.016120665 -2.0656378e-05 -0.00802665 0.011433129 -0.017275937 0.0012483023 -0.013426987 0.0012464409
-0.01357377 -0.002619421 -0.00949158 -0.00019093578 -0.00034353798 -0.016921738 0.00952668 0.017240455
00000000: 6588 9f39 9876 a33c 9ced 533c 1293 83ba
00000010: 0cd6 943a 75de 88bb 6ec7 a3bb faa2 fe3b
00000020: bee6 2c3c 5953 443b 7400 81bb 31ee 84bb
00000030: 14e5 b73b 8dcf ba3a f3a2 9a3b b94e 473b
00000040: 0167 343c 5f59 9d3b a875 a53c 4c0a 753c
00000050: e203 7c3c 8e56 58bc b625 743c 388b 893c
00000060: 2f75 623c d3fa 1dbc 8bfd 3a3c 7ffe 813c
00000070: 8beb a6bc 803b 713c c07c 4f3c 83c0 98bc
00000080: 1920 35bb e959 d8bb 1f52 6dbb 7a54 0d3c
00000090: e57b aebb 67b7 85bc 06f1 0d3c 6374 3d3c
000000a0: aeea 9cbb a85e a83c ccce a1bb e338 7fbc
000000b0: 1583 b9bb 4a8d 64bc 978d 6a3c 239d c7bb
000000c0: af57 0a3c b3a5 71bc d909 73bc 5552 7c3c
000000d0: 6a14 103c 4b26 0fbc b9bc 333c 7aaf 46bc
000000e0: 889a c5ba df84 72bc d9df a93b 76fc 4ebb
000000f0: e1a8 79bc a8f6 81bc 4f66 bfbb 1804 8d3b
00000100: 5389 1ebc c449 7bbc e356 333c e342 943b
00000110: f420 ab3c 0320 8a3c 3b98 1a3c a6ed 553c
00000120: 3f02 88bc 6238 48bc 0f54 673c 2d8c a53c
00000130: f1aa 703c 881b e7bb 9743 7f3c 5499 a9bc
00000140: f308 003c 7323 9ebb 8c48 593c 5f18 993c
00000150: e947 a83c c072 a33c f540 933c 22b5 bcba
00000160: 761d 2cba 7e0a 92bb 01aa 683c 20a4 1c3a
00000170: 6e2b 28bc c613 0abc b174 32bb b807 0c3c
00000180: cddd 8a3c eff9 363b 8564 77bc 2323 363c
00000190: 5794 21bc 6be1 443c e972 393c 7493 b83a
000001a0: d9c5 a0ba 70ba ab3b 1a30 283c 8a9c 8a3c
000001b0: 567a 08bc 103c 893c c69a d23a d617 bf3b
000001c0: 4404 77bc a0eb 143b 3f5d 9c3c e340 1f3c
000001d0: b6a0 713a 1f89 89bb d13d 2e3c 6091 933c
000001e0: e78c a53c 38ed b2ba de0a 7f3b a176 26bb
000001f0: bd16 3b3c 414d 22bc eddb 563c 5165 733b
00000200: 5f95 75ba c945 9b3b 353c 6e3c 65e3 e9bb
00000210: 7c15 abbc 3288 31ba 9a1e 85bc f6f0 623c
00000220: 98f1 ab3c da61 bd3b 2a90 a83c be12 5d3c
00000230: df6c 0abc b60c 8c3c da2c 9abc 4af1 8abc
00000240: d7fb 38bc 2c6d 09bc b965 243b 03f9 fd3b
00000250: 7b95 ab3c 4153 b4ba 4f27 40bc 64bf d43b
00000260: 0f73 fb3a 563e 5abc fa33 22bb 7908 0dbc
00000270: 4857 343c 9630 383c 1b4d 2f3c 240e 1b3c
00000280: 98b6 a6bb 74a4 8f3c db7a ee3b b78b dc3b
00000290: 3b20 8ebc a93f dbbb 75d2 cc3b 69f5 893c
000002a0: 6855 aabc c04c c3bb 4dfe 93bb 96a6 00bc
000002b0: d364 04bc 065a 09bc 3214 353b 6668 523c
000002c0: 125f 883c 159e 233c aeaa fc3a 2a1c 09ba
000002d0: 2175 3e3c 40d8 ce3a 7688 d53b 990d ebbb
000002e0: 150c 4fbc b9d1 693b f9b4 593c 7e89 62bc
000002f0: d4e4 c8bb 6358 9fbb 154c 46bc 2a07 803c
00000300: 3b42 d6bb 2822 eabb ebad 303c 69c2 063c
00000310: 4b7f 97bb 6b6e 09bc 8e91 823c da03 5c3c
00000320: 6170 783c ef76 883c 47fe 983c 4918 08ba
00000330: 1661 b5ba 81fe 58bc 3bb0 8f3c ee20 313c
00000340: 782e 6a3b 4394 8e3c 9840 8ebc 0170 a23c
00000350: 33de 4a3b 2eca 35bc 9e5e 11bc 03a7 a73c
00000360: 12af 133a 67f2 99bc 24c2 a4bb 05e4 903b
00000370: c6c1 743c 1997 3c3c c952 23ba a8ce b33b
00000380: 8776 b5bb 8aba 5e3c 59f1 343c 6a55 40bc
00000390: 2a3d 9e3c 947c 653c a44a 163c b960 5e3c
000003a0: 6740 99bc b4f7 813b fe83 c2bb 4bcd 9abc
000003b0: bba0 6ebb 347b debb 3b9a 2c3c c6ba 883c
000003c0: 7c0f 843c 3c47 adb7 3682 03bc 0552 3b3c
000003d0: 4486 8dbc 139e a33a defc 5bbc 9e5f a33a
000003e0: 8564 5ebc 98aa 2bbb 9282 1bbc ef35 48b9
000003f0: e31c b4b9 759f 8abc cb15 1c3c db3b 8d3c

layers.0.bias f4 [16]
-0.020439472 -0.007935427 0.014525036 -0.01612669 -0.011672459 -0.0038057845 -0.014742414 0.025338652
0.02489541 -0.0012869389 -0.01434472 0.02038913 -0.005595521 -0.00053664425 -0.021363784 0.006335609
00000000: ae70 a7bc 9803 02bc 6bfa 6d3c 1f1c 84bc
00000010: d73d 3fbc 786a 79bb 2a8a 71bc 0193 cf3c
00000020: 75f1 cb3c 81ae a8ba 1e06 6bbc 1b07 a73c
00000030: a25a b7bb 96ad 0cba 1a03 afbc f19a cf3b

layers.2.weight f4 [8, 16]
-0.38112733 0.20260046 -0.051242292 0.08704936 0.20165217 0.11599111 -0.20208195 0.53684247
0.461872 -0.32301977 -1.4143566 -0.26022556 -0.016650444 0.24541825 -0.077981785 0.023432741
0.6948341 -0.23183784 0.0076501966 0.20205927 -0.09395188 -0.13786232 -0.09131101 0.20816965
-0.57396346 0.07517516 -0.041912567 -0.04319388 0.0009751618 0.045328587 -0.22817284 0.16831324
1.1238166 -0.06821686 0.050429672 -0.15750124 0.035375446 -0.097739734 0.04425913 0.1633268
0.9644146 0.2034342 0.29798296 -0.33412436 0.15604255 -0.1454309 -0.22259727 -0.09364666
1.2341033 -0.14443792 -0.21626097 -0.22408055 -0.13903797 0.083783 -0.19240603 -0.27828205
-0.5958089 -0.045604885 0.6345692 0.26706618 -0.22609343 0.13393861 -0.07751578 0.18657194
0.7736505 0.039176665 0.10131186 0.22669668 -0.056600213 0.22902368 0.11654231 0.43085515
-1.1421355 -0.2071623 0.50531596 1.0248494 -0.18082653 -0.20992982 0.1310679 0.005101887
1.3027799 -0.0402354 -0.066720515 -0.022400916 -0.2405119 -0.042009324 -0.15449777 0.11697626
-0.057237677 0.10428612 0.29199302 -0.40725553 0.15282306 0.18724921 0.1170879 -0.07518053
-0.06704565 0.16422868 -0.120819956 -0.0779554 0.13124618 -0.2163533 0.0764769 0.7282895
-0.24641223 -0.7518521 -0.47481987 0.45978785 -0.21239561 -0.23130319 0.24509907 -0.1305294
0.71591735 -0.11953743 0.06813556 -0.23164596 -0.05624357 -0.24224404 -0.04662776 0.081748724
0.17140798 0.21286628 -0.17478308 0.13557744 -0.14717297 0.010098904 0.21233359 -0.12030171
00000000: 1f23 c3be 7f76 4f3e 70e3 51bd ef46 b23d
00000010: e87d 4e3e bf8c ed3d 92ee 4ebe 826e 093f
00000020: 7d7a ec3e d962 a5be a309 b5bf 493c 85be
00000030: 8366 88bc ec4e 7b3e eab4 9fbd 05f6 bf3c
00000040: a6e0 313f e666 6dbe 80ae fa3b a0e8 4e3e
00000050: d869 c0bd c82b 0dbe 4401 bbbd 6d2a 553e
00000060: 45ef 12bf 6ff5 993d 83ac 2bbd 11ec 30bd
00000070: 00a2 7f3a 78aa 393d 24a6 69be 4e5a 2c3e
00000080: 39d9 8f3f 48b5 8bbd 588f 4e3d 0148 21be
00000090: d8e5 103d c52b c8bd 1049 353d 243f 273e
000000a0: e0e3 763f 0e51 503e 3991 983e 5912 abbe
000000b0: 9ec9 1f3e d6eb 14be 8af0 63be d2c9 bfbd
000000c0: 19f7 9d3f 89e7 13be 8473 5dbe 5f75 65be
000000d0: f85f 0ebe 6c96 ab3d 1606 45be fc7a 8ebe
000000e0: ef86 18bf 30cc 3abd 2173 223f e6bc 883e
000000f0: 0985 67be 3427 093e 98c0 9ebd b70c 3f3e
00000100: f60d 463f b677 203d 987c cf3d 2d23 683e
00000110: a0d5 67bd 2f85 6a3e bcad ee3d 0c99 dc3e
00000120: 7f31 92bf 5b22 54be 635c 013f 442e 833f
00000130: 972a 39be d8f7 56be aa36 063e bb2d a73b
00000140: 7ec1 a63f e0cd 24bd c4a4 88bd 2082 b7bc
00000150: c048 76be f811 2cbd aa34 1ebe 4091 ef3d
00000160: 0e72 6abd f693 d53d 1c80 953e cc83 d0be
00000170: a67d 1c3e 42be 3f3e c8cb ef3d 40f8 99bd
00000180: 3b4f 89bd 902b 283e 7470 f7bd 15a7 9fbd
00000190: 6665 063e b88b 5dbe ec9f 9c3d 2e71 3a3f
000001a0: 7d53 7cbe 6179 40bf 971b f3be 5069 eb3e
000001b0: 3c7e 59be beda 6cbe 40fb 7a3e 80a9 05be
000001c0: 5c46 373f 0ad0 f4bd a88a 8b3d 9934 6dbe
000001d0: a85f 66bd d20e 78be c0fc 3ebd e06b a73d
000001e0: 9385 2f3e 9ef9 593e 56fa 32be d0d4 0a3e
000001f0: 83b4 16be e075 253c fa6d 593e be60 f6bd

layers.2.bias f4 [8]
-0.14019828 0.1758868 -0.34252825 0.20373915 0.22159769 0.087561436 -0.16719009 -0.2628641
00000000: 2390 0fbe ab1b 343e dd5f afbe ffa0 503e
00000010: 81ea 623e 6953 b33d e133 2bbe 2096 86be

layers.4.weight f4 [1, 8]
1.5719006 0.804047 -1.5378565 1.4825735 -1.8034164 1.3298758 1.20396 -0.7176516
00000000: 0a34 c93f 06d6 4d3f 7bd8 c4bf f8c4 bd3f
00000010: 59d6 e6bf 5f39 aa3f 5c1b 9a3f 04b8 37bf
